model.pth (torch, 250597 bytes, 10 tensors)

c1.weight f4 [6, 1, 5, 5]
00000000: bbbc fe3d d2ee 663f b43e 603f 56f0 0f3f
00000010: 9955 22be c7b2 b2bd 567b 443f f74f 253f
00000020: ea44 3e3e 6ab6 4cbe d8f5 d63d 0410 583f
00000030: 50b7 0f3f 07c2 debd b19e 18bf b68b 83bd
00000040: 2eee 8d3e afaf 893d 556c cbbe 76ed 70bf
00000050: dcc8 6abe 8003 073e a628 a0bd e69b 40bf
00000060: 7ddd 9fbf a6e3 923e 77d7 8bbe 2b59 20be
00000070: 8701 d73e ec9c 153f 4010 223e 8455 5abf
00000080: ae96 48bf fa50 cdbd b34b 863e a9d1 193e
00000090: 2c66 7cbf 8cae 7dbf 6043 76bd 7422 1a3f
000000a0: bb2a bd3e 8ebe 34bf 2b0f 69bf 0ec8 78be
000000b0: 6959 df3e 3891 673f 6a7a 84be 101e e1be
000000c0: d5db 29be b86b 003f b818 a7be f682 c93e
000000d0: b1ad d83e 7399 a2bd 0189 16bf 0593 1ebf
000000e0: 24ed 1a3f 0d16 c03f 050f 193f 0cce 55be
000000f0: 6fd5 40bf 6e30 e23e 2a69 bf3f 0d02 973f
00000100: 2807 cabe 2af2 78bf 0417 abbd 1bef e33e
00000110: 63f0 273f cc22 62be 0323 47bf 2a75 4bbe
00000120: ecca c13e 206b d03e 870d 29bf bf69 d7be
00000130: 276d 383e 9eff df3e 4ba4 3c3e 6161 41bf
00000140: 13cc 61bf 7080 02bd 2a43 573f d706 673f
00000150: f812 93be 6de7 30bf 4a4e 5cbd 7fe9 963f
00000160: e8c8 8c3f 3a04 82bd 8323 14bf ee1d 8bbe
00000170: 1cf2 133f 2604 603f 4779 82be 84db 1fbf
00000180: d6ff d6be d126 e83e ca2b 3d3f f462 0abe
00000190: a1e7 5abf 9c6e b23e 9ef8 53be 2c15 93bf
000001a0: 1ae9 94bf 4563 08bf 9869 983f abdc c73e
000001b0: d9b0 4abf 8e62 38bf cbb3 a23e c06c 0140
000001c0: 23fb 8f3f 01a3 bdbd 176b 4fbf b936 fbbc
000001d0: b053 da3f 5bc6 b93f 7824 7ebd 90a2 81bf
000001e0: 5a40 f4be d44e c03f 62ee 963f 15e7 dfbe
000001f0: a460 58bf 3f0b 19be 86fe fabb 6337 99bd
00000200: 73de 3cbe 6035 94bc 979e 823f de9a 2a40
00000210: ed1c 3040 6d08 e23f 26d7 533f 1d19 783f
00000220: 5f8e 6e40 f07e 8a40 98c2 5440 6eca 6f3f
00000230: b0e8 6ebe da54 463f 512f 0740 9174 b23f
00000240: d586 263e 99b6 85bf 890f 4ebf 6d77 8cbe
00000250: 99e9 69be a8ba c4be
0.12438341 0.9020816 0.8759568 0.562261 -0.15852965 -0.08725505 0.76750696 0.6457514
0.18580976 -0.1999146 0.1049611 0.8439944 0.5613909 -0.108768515 -0.59617144 -0.06423132
0.2772078 0.06722962 -0.39731088 -0.94112337 -0.22928184 0.13184929 -0.07820253 -0.7523788
-1.2489468 0.28689307 -0.27312824 -0.15659015 0.41993353 0.5844257 0.15826511 -0.85286736
-0.7835492 -0.10025211 0.2622963 0.15021385 -0.985934 -0.9909446 -0.060122848 0.6020882
0.36946663 -0.70603263 -0.9103877 -0.24295065 0.43622902 0.9045596 -0.25874645 -0.43968248
-0.16587766 0.50164366 -0.32636046 0.39357728 0.42320016 -0.07939424 -0.588028 -0.61943084
0.605181 1.5006729 0.59788543 -0.20879382 -0.75325674 0.44177574 1.4953969 1.1797501
-0.39458585 -0.97244513 -0.08353999 0.4451836 0.65601176 -0.22083586 -0.777878 -0.19868913
0.3785013 0.4070673 -0.66036266 -0.42072865 0.18010388 0.43749708 0.18422048 -0.75539213
-0.8820202 -0.03186077 0.8408686 0.9024481 -0.2872541 -0.6910313 -0.0537856 1.1790007
1.0998812 -0.063484624 -0.57866687 -0.27171272 0.57791305 0.8750633 -0.25483152 -0.6244433
-0.41992062 0.45342115 0.7389494 -0.1351431 -0.8550969 0.34850013 -0.20700309 -1.1490836
-1.1633637 -0.53276473 1.1907225 0.39035544 -0.791761 -0.7202538 0.31777796 2.0222626
1.1248516 -0.09259606 -0.8102278 -0.030665742 1.7056789 1.4513658 -0.062046498 -1.0127735
-0.47705346 1.5024056 1.1791499 -0.4373099 -0.8452246 -0.14945696 -0.007659736 -0.07481267
-0.18444233 -0.018091857 1.0204648 2.6657023 2.7517655 1.7658821 0.82750165 0.9691332
3.7274396 4.3279953 3.324377 0.9366826 -0.2333095 0.77473223 2.112263 1.3941823
0.16262372 -1.0446349 -0.80492455 -0.27434865 -0.22843017 -0.38423657

c1.bias f4 [6]
00000000: 5860 10bf 3d0a 363e 3d71 9abe e50b 13bf
00000010: 078b eabe 9f26 2abf
-0.5639701 0.17777343 -0.3016452 -0.57440025 -0.45809194 -0.6646518

c2.weight f4 [16, 6, 5, 5]
00000000: 64cf 38be b5f4 c4be 0464 76be 1cfc c5bc
00000010: 711e c7bd 64f8 e4bd 9b28 63be b277 9abd
00000020: ec94 1a3e d95d 5cbc 8e97 a3bd 6d20 93bd
00000030: 0c4c e43d e8a7 263e 5256 983d 0211 953b
00000040: 7e63 673e 1167 413e cf9c 003e 24af 06bd
00000050: 0bb1 3e3d a793 5c3e f777 e73d a582 26be
00000060: ed57 6bbe 40cc 4b3e 397a db3e 2105 083e
00000070: e0a0 0c3e 30c0 e43d e72f 683e 23ff 993e
00000080: b7c8 913d 603d c83c d0bc 133e 03df 063e
00000090: 80e0 833d 94e6 943d f9a5 b63c 6f52 7b3e
000000a0: fee9 3c3e 2f5a d73d cdf1 503e 1072 123e
000000b0: a57c c03e 5625 9e3d 875a 493e 827f c63e
000000c0: df7c b23e 5425 b13e e1ab 85be 88a7 7abe
000000d0: 2fd7 8ebc 1398 ffbd 82d0 88bd 2f17 2abe
000000e0: 545b 74be a2e0 113e 2ac9 703d 2348 8fbd
000000f0: 6da5 513d aa5d eebc 625f bc3d 6354 a4bc
00000100: bd7e fcbd 19d9 803d 7e9d a03d 6454 bebd
00000110: 0d54 dbbc 03c3 16be db43 aa3d 1add f8bd
00000120: 802f 8dbe a3c8 0bbe 974d 3cbe e917 78be
00000130: 4bbe 1dbe e835 a23d 035c 26bd fa81 01bc
00000140: ab70 eebd c4fb 3bbe 71c0 933d 6883 92bc
00000150: 7d86 f2bd d95e aabd edbd 14bb 5c89 893c
00000160: e778 3cbe da98 f7bd ef14 b53c ee54 bfbc
00000170: f6e6 0abe a80d 33be 97d9 94be 73d8 a43d
00000180: 6486 6abe 14a1 f8be ab8f 59be 8962 8bbe
00000190: 32cf 393d 2956 81be 89c7 4dbd 5ddb 153e
000001a0: 24cc 383d 2eae 813d f8ee aebd af67 c4bc
000001b0: be96 8a3e 57c3 62bc 3dd6 3abc 11c7 123e
000001c0: fe0b 263d 30e1 d33d 1ba2 89be 7cf5 d93c
000001d0: 27f0 b93d 749f a5bd e3b1 5cbe 5ec3 a5be
000001e0: ba71 843d 33e4 c03d 6eb2 b0be 5dcd b7be
000001f0: 0c62 38be cfcc 7cbe 3d53 a7be fff3 84be
00000200: dd80 9ebd f301 003d a27b 69be 9db3 89be
00000210: 257c 7e3c 5ab1 213d be5a b23c bbac b3bc
00000220: 4195 07bb 4e8e d13c 554c 3abe aa91 4cbd
00000230: f7cf 83bd 690c e9bd aa46 81be 1d3d bfbe
00000240: 5a9b bcbe 1673 f93c 8ba4 6fbe bc53 debe
00000250: aea1 05bf 5ab3 9abe 3672 cf3d e6ba 9f3d
00000260: 51cf 9abe e9c0 eabe 429c fdbe cad4 153e
00000270: 98e1 c23e c6e9 cdbc e6a2 88be 1489 a6be
00000280: 2084 f93c 0927 893e ce36 0dbe dfbe 4cbe
00000290: 0aa4 29be 8032 753d c530 c53e 55f9 a639
000002a0: 95b5 d7bd 8208 f7bd 7923 9f3d 3ac4 ca3e
000002b0: 255a 02be d41d 1ebe dd8b c5bd c5e7 15bf
000002c0: 98b9 88be 57de bc3e 978f 073f 777c 0a3f
000002d0: 0cc1 9bbe 68f7 b2be ef23 9e3e 6725 8b3e
000002e0: a53e d03e 3ace afbe e152 08bf 50aa 573e
000002f0: b35d e13d 1b96 893e 6b67 8fbe 182d 0fbf
00000300: fa44 913e 357f 673e 645e 443e f48a d9be
00000310: b393 edbe 8939 003f 1d23 373e e9d8 ba3d
00000320: ea50 e13e c4e2 efba 15f9 49be 8d80 0ebf
00000330: 8af7 84be 6e4a 8a3e 0277 333c e407 5cbe
00000340: ac98 92be 9f31 94be de81 a73e c4c3 e83c
00000350: a08d 90be 98d9 80bd 2255 e5bd cbfe 823e
00000360: 9bc0 6f3d 5da6 7bbe bbaa 62bd 6b7d 5ebd
00000370: 34b7 443e 16c1 5e3d 0138 9cbe d2a2 2bbd
00000380: 74ba 90bd d663 e13e 9860 95bd 4caf 9dbe
00000390: be7b 17bf 8540 24be fb53 a23e 11df 3fbe
000003a0: 135c 88be 84b7 5fbe ae08 64be 0968 ca3e
000003b0: f1a0 80bb 7980 8cbe b2fa 3cbe c7cf 0dbe
000003c0: 9880 ad3e 41be c43d 9603 54be d768 89bd
000003d0: 31da 54bd a94a 9f3e 6318 f0bc 60ef 5bbe
000003e0: c35a a23c 8ffa 2a3d 1910 8c3e 00d7 c33e
000003f0: 65e8 7c3d c1c7 6dbc 2b68 d7be daab d8bc
-0.18047863 -0.38467947 -0.2406159 -0.024168067 -0.09722603 -0.11180189 -0.22183459 -0.07542361
0.15095872 -0.013450109 -0.07987891 -0.07183919 0.11147317 0.16274989 0.07438339 0.0045491466
0.22596547 0.18886973 0.12559818 -0.03288187 0.04655556 0.215407 0.11302178 -0.16260774
-0.2298276 0.19902134 0.42866686 0.13283207 0.13733244 0.11169469 0.22674523 0.30077466
0.071183614 0.024443328 0.14427495 0.1317101 0.06439304 0.07270542 0.022295939 0.24543165
0.18448636 0.10515248 0.2040474 0.14301324 0.37595096 0.07721965 0.1966344 0.38769156
0.34860894 0.34598792 -0.26107696 -0.2447797 -0.017436592 -0.12480178 -0.06680395 -0.16610406
-0.23862964 0.14245847 0.058785595 -0.06996181 0.051183153 -0.029097397 0.0919788 -0.02005977
-0.12328861 0.06291408 0.07842539 -0.0929344 -0.026773477 -0.14722829 0.08313724 -0.12151547
-0.27575302 -0.13650756 -0.18388973 -0.24227871 -0.15404622 0.07920438 -0.040615093 -0.007904524
-0.116425835 -0.1835776 0.0721444 -0.017884925 -0.11842058 -0.08318872 -0.0022696212 0.01678913
-0.18405496 -0.12089701 0.022104708 -0.023355927 -0.13564667 -0.17485678 -0.29072258 0.08049097
-0.22902828 -0.48560393 -0.21246211 -0.27223614 0.045363612 -0.25261047 -0.05023912 0.14634462
0.04511656 0.0633205 -0.085416734 -0.023975221 0.27068132 -0.013840518 -0.011403617 0.1433375
0.04053878 0.103456855 -0.2688149 0.026606314 0.090790085 -0.08087054 -0.21552233 -0.32375616
0.06467004 0.094185255 -0.3451113 -0.35898867 -0.18006152 -0.24687503 -0.32680693 -0.25967404
-0.077394225 0.03125186 -0.22801068 -0.26894847 0.015532528 0.039475776 0.021771785 -0.02193295
-0.0020688327 0.025580551 -0.18193181 -0.049943604 -0.064361505 -0.1137932 -0.25249225 -0.37351313
-0.36837274 0.030450385 -0.23402612 -0.4342326 -0.5219983 -0.3021496 0.10129206 0.0779932
-0.30236295 -0.45850304 -0.49533278 0.14631954 0.3806274 -0.025135886 -0.26686782 -0.32526457
0.03045851 0.26787594 -0.13790438 -0.19994687 -0.16566482 0.059862614 0.3851377 0.00031847754
-0.10532681 -0.120621696 0.07770438 0.39602834 -0.127297 -0.15441066 -0.096458174 -0.5855678
-0.26704097 0.36888382 0.52953476 0.5409617 -0.3042072 -0.3495438 0.3088679 0.27176973
0.40672794 -0.34337026 -0.53251463 0.21061063 0.110042 0.26872334 -0.2800859 -0.5592818
0.28372937 0.2260712 0.19176632 -0.42488825 -0.46401748 0.5008779 0.17884488 0.091234036
0.44007045 -0.0018301834 -0.19723924 -0.556649 -0.25970107 0.2700991 0.010953667 -0.21487385
-0.28632104 -0.28944108 0.32716268 0.02841366 -0.2823305 -0.06291503 -0.111978784 0.25585017
0.058533292 -0.24575181 -0.055338603 -0.054318827 0.19210511 0.05438336 -0.30511478 -0.041903324
-0.07066813 0.4402148 -0.072938144 -0.30797803 -0.5917319 -0.16040237 0.31704697 -0.18737437
-0.26632747 -0.2184735 -0.22268936 0.39532498 -0.0039254357 -0.27441767 -0.18455008 -0.13848792
0.33887172 0.096066006 -0.20704493 -0.0670945 -0.051965896 0.3111165 -0.029308503 -0.21478033
0.01981867 0.041742858 0.27356032 0.3824997 0.061745066 -0.014512957 -0.4207166 -0.026449133

c2.bias f4 [16]
00000000: fa41 373b 50c8 18bc dd53 88bd c53a f9bc
00000010: e46a 80bd f949 d73c e0a0 bd3d fb7a b93d
00000020: dc33 da3d a4a3 09bc 4938 5ebe a7f7 ae3d
00000030: f80c 9ebc 2cfe 1b3d 4a8f 60bd 29a2 8dbd
0.002796291 -0.009325102 -0.06656621 -0.030423531 -0.06270388 0.02628039 0.092592 0.0905666
0.10654423 -0.008400831 -0.21701159 0.0854333 -0.019293293 0.038084194 -0.05482415 -0.06915695

f5.weight f4 [120, 400]
00000000: 70cd 8f3d ba57 ac3c 1366 9cbe 7eef 84be
00000010: 3a08 043e d667 dd3d 2381 d03d d758 db3d
00000020: 1e71 8abd da43 0bbd 6665 cebc e9d5 793e
00000030: 697c 1d3d cd70 8fbd 8122 6ebd ccb8 a2bd
00000040: 3a1d b33d de40 0b3e b09d 3c3d efb5 acbd
00000050: a58c efbd fde2 683e 0627 423e b4f1 adbd
00000060: defc f93c 6ae2 29bd 2de0 203b 397c 80bc
00000070: 2a63 e53c 22eb e5bc 5bed 2e3d 138b 873d
00000080: 0197 dc3d 6671 25bb 0063 81bd 8544 a03e
00000090: 18c5 943d 4c03 17bd 7f71 503c f820 0f3d
000000a0: 6f36 2fbc 6eea 56bc c07b d0bd 4d04 aabd
000000b0: 65a7 1b3d 97ba 67be 9182 55bd d48a 233d
000000c0: 7aee f1bd be6c 9cbd 333b 003d 4142 4e3d
000000d0: 5518 61be 34f1 953c aba7 20be cc40 d63c
000000e0: 21ea b13d 279e 053e d1ed 71bc 9143 3cbe
000000f0: e92e 9f3c eb36 863d de77 233d 2f1e 07bb
00000100: ee39 b0bd bf74 923c 1ef7 ab3d 2c45 073d
00000110: 5dd9 5cbe 0ee7 f33c 0f96 203e 7dfb 8bbb
00000120: 07e0 e4bd 7ad5 8fbe 215a c7bd d6f7 afbd
00000130: cc6c 2a3e 12a4 c33d 1a36 cf3d 8b11 8a3d
00000140: 9271 ba3b 97be 6b3d 22af a5bd 0273 163e
00000150: e960 8e3d d19b 04be 700f fcbd 0fcb 58be
00000160: 049f ec3c eedc 023d c16b 87bd f9fe 0cbd
00000170: 3c4f 37be 5580 58be c012 1fbe 17b4 dcbd
00000180: d2af fcbd a035 3cbe c0eb 9dbe 667e 07be
00000190: 7b35 013e f496 d73d 904e 0d3e e9de a2bd
000001a0: e2de 54bd 474e 38bd e443 113c 6aa5 2e3e
000001b0: 9cdb 2c3d 9632 10bd d6bb 6d3e 6424 d43d
000001c0: be98 9c3d 4572 403d d135 80be 5dba 6e3c
000001d0: aad5 f43c 828d 3bbe dc9d 713d 4326 f5bd
000001e0: 5365 d1bd e947 2fbe 0fd7 3bbe f948 0e3e
000001f0: db38 11be 462d 0cbd e78f 8bbd 86ca 4cbe
00000200: 57d8 abbe 6d56 4ebc 64ae 00bd 05f6 c63d
00000210: 1ace a9bc 390c 3abe 32c4 1f3d 9043 6abb
00000220: a718 c1bc b3f7 a13d cef6 433e 7bee f4bd
00000230: 4cf1 e3bd d4c8 ab3c 428c 6c3e c16e 323e
00000240: 2b68 51bc 6300 b13d 7a48 c3bc 560f 26bd
00000250: df35 953d f601 38bc d76d dd39 4e4f 4dbe
00000260: 646e abbe 87e0 843e e387 2a3e 793a 9b3d
00000270: 226c a7bd ad65 22bd 3bf7 553e aeab 81bb
00000280: 27ec cabd eacb 1a3d feea efbd 83e0 8e3e
00000290: 18a1 78bd 27c1 12be 152a 073e 1567 f03d
000002a0: 3519 febd 97ef b23c f14c 27bd a4c0 b03d
000002b0: 1576 d83c 4b73 bebd f43a 20be e6af 293d
000002c0: 2ecb 6dbe a4b0 92be 2915 f7bc 1bb4 0b3d
000002d0: 92a8 613d a227 f43c 96b9 193d 595d eabb
000002e0: 789d 97bd cf77 69bd 34c2 8c3d 2545 d43d
000002f0: 5bad 403e cd72 a0bd 918c dcbd 22be 353e
00000300: 6a7a 663e 955b 92bd b119 963c 7d2c 20bd
00000310: 9bd2 193e 3cc8 c93d e360 b9bd 9a57 17bd
00000320: bdc4 d83b 250c bcbd cee9 99be 5cd5 96be
00000330: 3601 833c 292d a1bc 68fa b53d 3da1 b23b
00000340: 67e8 c6bd d4ed 7bbb 9e75 84bc 2476 dcbc
00000350: 72bd ad3d a7cf eebd 5ac8 88bd 2cb5 b4bd
00000360: 55b4 70bd 2d18 2f3e 4483 2f3d 2d18 0cbc
00000370: bbe0 fbbc 836a aabd 17fa 833d 68a1 af3d
00000380: f1e3 023d 8ace 723d d6a0 63bd 9a3f 03be
00000390: 20d6 44be b8c0 e53d 8117 d43b 0d58 f83c
000003a0: 6ea7 173e 6e29 d2bc cad7 8c3c 2d35 b9bd
000003b0: fd29 e83d 765d ab3d 33bc fabd 5bce 92bc
000003c0: 43b6 7dbd f11c 9b3d 9101 243e 8906 2fbe
000003d0: c3d5 54bd db7d cdbd 0979 1d3d 7034 13bc
000003e0: 3c80 e4bd 8404 99bc b7b0 cbbd f247 29bd
000003f0: 1677 afbd d10c 06be 25aa a93c c6f3 71be
0.07021606 0.021037925 -0.30546626 -0.25963968 0.12893763 0.10810821 0.10180881 0.10710304
-0.06759857 -0.034000255 -0.025194835 0.24398006 0.038448725 -0.07003937 -0.058138374 -0.079454035
0.08745809 0.13598964 0.04604882 -0.084331386 -0.11696748 0.22742839 0.18960199 -0.08493367
0.030516084 -0.04147569 0.0024547682 -0.015684234 0.028001387 -0.028066222 0.04270683 0.06618323
0.10770989 -0.0025244593 -0.06317711 0.31302276 0.07264155 -0.03686838 0.012722372 0.03494355
-0.01069413 -0.013117416 -0.101798534 -0.083016016 0.038001437 -0.22629772 -0.05212647 0.03992732
-0.11813064 -0.076379284 0.031306457 0.050356153 -0.21981938 0.018303491 -0.1568896 0.026153944
0.08687235 0.13048612 -0.0147661725 -0.1838515 0.019431548 0.065534435 0.039909236 -0.0020617356
-0.08604799 0.017877935 0.08396743 0.03302495 -0.21567293 0.029773261 0.15682243 -0.004271923
-0.11175542 -0.28092557 -0.097339876 -0.08592193 0.16643065 0.09552778 0.10117741 0.06741627
0.005689808 0.057554808 -0.080900446 0.1469231 0.06952078 -0.12950064 -0.12307632 -0.2117121
0.028884418 0.031948976 -0.06612349 -0.03442285 -0.1790132 -0.21142705 -0.15534496 -0.10776537
-0.123382226 -0.18379831 -0.30843925 -0.13231811 0.12618057 0.10526839 0.137995 -0.07952673
-0.05197037 -0.044996526 0.008866284 0.17055288 0.042201623 -0.035204493 0.23216185 0.103585035
0.07646321 0.046983976 -0.2504106 0.0145708 0.02988704 -0.183157 0.058988437 -0.119701885
-0.10224404 -0.17117275 -0.18343757 0.13895024 -0.14181845 -0.034222864 -0.068145566 -0.19999132
-0.33563492 -0.012593848 -0.03141631 0.09714893 -0.02072816 -0.18168725 0.039005466 -0.0035745837
-0.023571325 0.07908573 0.19137117 -0.11959549 -0.11130008 0.020969786 0.23100379 0.17425062
-0.012781183 0.08642652 -0.02383827 -0.04054197 0.07285666 -0.011230936 0.00042234242 -0.20049784
-0.3348266 0.2595255 0.16653399 0.07579512 -0.081749216 -0.039647747 0.20895092 -0.0039572334
-0.09908324 0.037792124 -0.11714743 0.27905664 -0.060700506 -0.14331494 0.13199647 0.11738411
-0.124071516 0.021842761 -0.04084486 0.08630493 0.026423493 -0.09299334 -0.15647489 0.041427515
-0.23222038 -0.2865039 -0.030161457 0.03410731 0.0550924 0.029804055 0.037530504 -0.007152241
-0.07403082 -0.056999024 0.06872979 0.10364751 0.1881613 -0.078343965 -0.107689984 0.17748311
0.22507635 -0.07146374 0.018322797 -0.039104927 0.15021746 0.09852645 -0.09051683 -0.036948778
0.00661525 -0.09182004 -0.3006119 -0.29459655 0.015991788 -0.019674854 0.08885652 0.00545135
-0.09712296 -0.0038441317 -0.016169365 -0.026911803 0.084833995 -0.116607 -0.06678839 -0.08823618
-0.058765728 0.17099066 0.042849794 -0.008550686 -0.030746808 -0.08321097 0.06444185 0.08575708
0.031955663 0.059279002 -0.055573307 -0.12817231 -0.19222307 0.11218399 0.0064725284 0.030315423
0.14809963 -0.02565452 0.01719274 -0.090433456 0.11336134 0.08367436 -0.122429274 -0.017920664
-0.061941396 0.075738795 0.16016223 -0.17092337 -0.05196167 -0.10033771 0.038445506 -0.00898467
-0.11157271 -0.018678911 -0.09945815 -0.041328378 -0.08567636 -0.13090827 0.020711014 -0.23628148

f5.bias f4 [120]
00000000: 29c7 d23d 466d 90bd ae50 f53b 0f18 f43c
00000010: ef39 d23d c9d6 ad3d 421c a0bd bb99 fe3d
00000020: f3f5 583d 8a84 0ebc a7e9 663d 2f03 013d
00000030: 24ea 0c3e d177 803d 427b eb3d 7d54 893d
00000040: e2a6 cdbd dd9a 1dbd c5b7 553d 7caa 09bd
00000050: eca5 18bd 7886 603d 7d3d 123d 0ee1 fdbd
00000060: d865 233d 1e65 aa3c 61e0 7e3d 4c8a f4bc
00000070: 67fb c8bb adcb 22bc 6766 8a3b 4f99 9dbd
00000080: 3a54 1ebd 9a9b 863b d4ae 273d c267 903d
00000090: 821b 86bd 343b a2bd 24e9 e93d af99 823d
000000a0: db68 7d3c ee7d f1bb 0710 27be 6858 ecbd
000000b0: b023 11bc 5264 2f3d 606a 79bd cedd 9e3d
000000c0: 217a f93c 92c6 06bd 4bcf 5dbd 05ea 0e3e
000000d0: 5175 5abe 2778 c83c f203 b3bc 2680 ac3d
000000e0: 96c4 0ebe 5bb5 613d 4400 693b c663 08be
000000f0: 51b5 05be 88a9 4abe 5ad1 c2bc ff3a 3c3d
00000100: 9432 7dbc 8723 20bd 9daa fbbd 63d9 d03d
00000110: 2705 9a3c 17ee 20bd a1ce 223c 10b8 9f3c
00000120: ca4a 94bd b72d 0b3c 712c 933c 4560 fd3d
00000130: 244c 22bd 9335 50bc a53d 6b3c 5ee6 fe3c
00000140: a6f6 80bd 9102 82bc bdd6 91bc 9932 c6bc
00000150: 8129 26bd 5739 12be dd7a 863c ef79 593d
00000160: 85d7 0dbd eebf e43d 18a8 15bd 0cdb 83bb
00000170: d86c a5bc fe5a e9bd 90bc 113e 92b0 8fbd
00000180: 461b b63b 4a84 983d f120 e7bc cf0b cb3d
00000190: 45bd 8ebd 6310 f0bd f43a aa3d d21f fcbd
000001a0: e2e4 053d 10d9 843d bc2a 033e f3a5 c53d
000001b0: 5020 c53d b903 863b f74e 7b3d ab45 9bbd
000001c0: daed 8fbc 37f7 6cbd 3370 42bc a46d f2bd
000001d0: caaf efbd b070 573d 26a7 7cbc 7395 0a3d
0.10291893 -0.07052092 0.0074864244 0.029796628 0.10264956 0.08488233 -0.0781789 0.124316655
0.05296893 -0.008698592 0.056375172 0.031497177 0.13761193 0.06272853 0.11498119 0.06705568
-0.10041596 -0.038477767 0.05217721 -0.033609852 -0.03726761 0.05481574 0.03570317 -0.123964414
0.039892048 0.02080017 0.062225703 -0.029851101 -0.006133485 -0.009936255 0.004223633 -0.07695257
-0.038654543 0.0041079046 0.040938213 0.0705104 -0.065482154 -0.07921448 0.11421421 0.06376969
0.015466894 -0.0073697483 -0.16314708 -0.115403 -0.008858606 0.042820282 -0.060892463 0.0775715
0.030453743 -0.032904215 -0.054152768 0.13956459 -0.21333815 0.024471356 -0.021852467 0.0842288
-0.13942179 0.055104595 0.0035553137 -0.1331931 -0.13057448 -0.19791234 -0.023781467 0.0459547
-0.015453953 -0.03909638 -0.12288401 0.10197713 0.018801285 -0.03928956 0.0099369595 0.019496948
-0.072408274 0.008494786 0.017965527 0.123718776 -0.039623395 -0.012708086 0.014357959 0.031115707
-0.062970445 -0.015870364 -0.01780259 -0.024194049 -0.040566925 -0.14279686 0.016416008 0.0530948
-0.034629364 0.1116942 -0.03653726 -0.004023915 -0.020193502 -0.113943085 0.14232087 -0.070161
0.0055574505 0.07447107 -0.02821395 0.09914362 -0.06969694 -0.117218755 0.08312026 -0.12310757
0.032688983 0.06486714 0.1280927 0.09650793 0.09625304 0.0040897992 0.061354604 -0.075816475
-0.017569471 -0.05785295 -0.011867571 -0.118373185 -0.11703451 0.0525977 -0.015420711 0.033833932

f6.weight f4 [84, 120]
00000000: 6000 a03d f28c acbd 9537 3cbd 3f5b 66bd
00000010: 13c2 1dbd afec 74be 137a 003e c75b d3bc
00000020: 7b31 143d fd13 1ebd b0f6 0fbd 608d ce3d
00000030: ab22 c4bd a141 a33a 33b7 ddbc e617 783d
00000040: bca8 a93d 59da 09bd 077c bebd 7f59 8cbc
00000050: 71c3 a33d 346b 4e3e 91f6 60bd be31 7abc
00000060: e1f1 ad3d 1ca2 8bbd 15c4 d8bc 3ed5 9dba
00000070: 14bf faba fa78 403d e60a b5bc ec48 213d
00000080: dd9d 133d 50e5 62be e923 45be d7a8 b0bd
00000090: 8559 493d 0ca4 4a3d f4dd 223d 91c8 d4bc
000000a0: 76f2 67bc eadd 213e 4afd 9fbd 4b03 db3d
000000b0: 9e36 063c e0bd 96bd 1ac4 d9bd fddb 07bd
000000c0: 0a23 d43d c440 a4bc 7783 49bd f9d0 8a3d
000000d0: 7768 9fbd 7d47 07be 34ef c6bd b28e f3bd
000000e0: edc0 9d3d c924 d03b 3fff c4bd e35d 23bd
000000f0: 5c96 abbd a635 db3c a89e a53d a766 dbbc
00000100: ec78 91bd 178a 303c 7324 abbd a114 05bd
00000110: 6a6c a13d 1368 1dbe 70f8 cebd 5454 4e3e
00000120: cbe3 773d f6de 12be 6fa1 8f3b 826d a2bd
00000130: f8b0 503d 3607 b53d 3f1e 06bd 9cc2 4b3c
00000140: 4f96 b73d 550c 27bd 04e0 123d e88c 48be
00000150: 2ece 63be 8336 173d f0ad 6b3b 2dc1 533e
00000160: 6046 b7bd 04ec 583e 808b a73d 089c 333e
00000170: 7a30 f4bc 0175 263c 82de c7bd 158d c9be
00000180: b5c9 823e b291 393d 6cad debd 8d3d 113d
00000190: dcfa 023e 386e 083e dc1e 1c3d aac4 19bd
000001a0: e819 143e 6094 833e 268e c63c cd4e 19bd
000001b0: fe70 50be 1bdc a7be 8cbf 93be 54ef 1f3e
000001c0: e9c1 62bc a46a 7ebe cb03 2dbe f684 733c
000001d0: 4b87 93be 4d18 91bc dea1 7ebd 27a2 aabc
000001e0: e925 60be 2652 afbc c593 20be 1be6 c33d
000001f0: 1d3c a1bd 4db0 bd3d d206 b9bd ed9c 083d
00000200: c7e8 11be 4bc3 963d aa2b debd c0e0 65be
00000210: 6229 56bc 08df b5bd ee7c 73bd 7e80 a1bd
00000220: 9c29 1a3e e9ee 91bb aa71 2e3d fa74 273d
00000230: f732 f23c 548c 073e cd73 2bbe 8374 313c
00000240: 81ca fe3d 36c5 c13d b849 cc3d 507f 71bd
00000250: 0abf 633e 8263 0abe 6af5 cd3d 2897 a53d
00000260: 7cbd df3b 32d8 5b3e 6fe0 01be e934 bcbc
00000270: 4115 0c3e cca4 083e 694e 1e3e bc66 1c3c
00000280: 3ccc 963c 0a49 e73d 5faf c53c ab32 053e
00000290: f36f 3cbd e702 52bd 547a e3bc e047 293d
000002a0: e972 d3bd a89f ea3d fbbe 83bc 9d8a ffbc
000002b0: f6b0 753d ddf7 1c3e 0cb9 4f3e e50e 863c
000002c0: e4da 893d 5579 1a3c 65ca b73d eb31 713b
000002d0: 4caf 83bc b9d4 373c 0e8b 153e a4e3 4bbe
000002e0: fe04 de3c 6f44 383e 8ec5 0fbe c6f8 2e3d
000002f0: 6024 f2bc 8fe1 8f3d 6581 db3d a943 4e3d
00000300: 4cd4 cb3d 58b9 773d 8a89 253e f7fb ccbd
00000310: b661 0d3e 250b 43bc 85b2 bebd 9d21 823d
00000320: f361 80bc 0c7b 20bb 04f6 b6bd a690 a1bc
00000330: dd36 203e 01c4 d13b f65a b53d 4806 e9bc
00000340: a971 333d f30e 933e 6092 523c d59f 5b3d
00000350: 726a 433d b4da 36bd 17ec 013d 4074 0c3d
00000360: cdbf 48be f599 0e3d d1ac e3bd 3838 d13d
00000370: 6faf 18bd 46a9 263e d520 ea3d 4045 a93d
00000380: 211c 79ba c4bf 32bd 8a4e dd3d f1d8 8ebd
00000390: ffc7 a2bd ee63 61be 6005 3a3e 20ba 86bd
000003a0: ce07 133e ac28 6d3c 574a 69bd 692a bd3d
000003b0: 6416 b23d 4d80 89bd 5aa8 bcbd 89ce 013d
000003c0: 196e 2abe 74bf a43d 448d 1abd 9452 0a3e
000003d0: 4729 b2bd 99d0 2ebe 5e71 783d dfc1 8c3d
000003e0: b638 c9bc 2ba8 f63d f335 ab3d 3b79 a2bc
000003f0: 7f32 d4bd f3bd 04bd 3efa a13d 1a38 43bd
0.078125715 -0.08425321 -0.045951445 -0.056239363 -0.03851516 -0.23918413 0.12546568 -0.025800599
0.03618 -0.03859328 -0.03514737 0.10085559 -0.09576925 0.0012455472 -0.027064895 0.060569666
0.08284137 -0.0336555 -0.09301 -0.017132519 0.07996262 0.20158082 -0.054922644 -0.0152706485
0.084934 -0.06818029 -0.026460687 -0.00120417 -0.0019130432 0.046990372 -0.022099923 0.039376184
0.036039222 -0.22157788 -0.1925198 -0.08625954 0.049157638 0.049472854 0.039762452 -0.025974544
-0.014156928 0.1580731 -0.07811983 0.106939875 0.008191733 -0.073604345 -0.106331065 -0.03316878
0.10358246 -0.020050414 -0.04919764 0.067781396 -0.07783597 -0.13210864 -0.09713593 -0.11892451
0.07702813 0.0063520414 -0.09618997 -0.03988446 -0.08378288 0.02675898 0.08086902 -0.026782347
-0.07103142 0.010775111 -0.083565615 -0.032490376 0.078820065 -0.15371732 -0.101059794 0.20149356
0.060519975 -0.14342865 0.004383258 -0.07931043 0.05095002 0.08839266 -0.03274369 0.012436535
0.08964216 -0.040783245 0.03585817 -0.19585001 -0.2224662 0.03691722 0.003596183 0.2067916
-0.0894897 0.21183783 0.081809044 0.1753999 -0.029808272 0.010159732 -0.09759237 -0.3936545
0.25544515 0.04530496 -0.10872921 0.03545909 0.12791008 0.13323295 0.038115367 -0.03754107
0.14463007 0.2569914 0.024237704 -0.037428666 -0.20355603 -0.32785115 -0.28857076 0.1561864
-0.013840177 -0.24845368 -0.16895978 0.014863243 -0.28814158 -0.017711783 -0.062166087 -0.020829273
-0.21889462 -0.021401476 -0.1568137 0.095653735 -0.07872794 0.09262142 -0.09034504 0.03335278
-0.14248954 0.07361468 -0.10848172 -0.22449017 -0.01307139 -0.088804305 -0.059445314 -0.07885836
0.15054935 -0.004453529 0.042588867 0.040883042 0.029565318 0.13237125 -0.16743393 0.010831001
0.12440968 0.09461443 0.09974998 -0.058959305 0.22240844 -0.13514522 0.10056575 0.080854714
0.006828008 0.2146919 -0.12683271 -0.022974448 0.13679983 0.13344115 0.15459599 0.009545978
0.018407933 0.11293228 0.024131475 0.1300761 -0.0460052 -0.0512723 -0.027768292 0.04132831
-0.10324652 0.11456233 -0.016082278 -0.031194026 0.059983216 0.15328927 0.20285434 0.016364524
0.06731203 0.009428342 0.089741506 0.0036803435 -0.016074799 0.011220151 0.14603826 -0.19911057
0.02710199 0.17994855 -0.14040205 0.042717718 -0.02955836 0.07025444 0.107180394 0.050357495
0.09952602 0.060479492 0.16165748 -0.10008996 0.13806805 -0.0119045125 -0.09311394 0.063540675
-0.015671706 -0.0024487404 -0.089336425 -0.019722294 0.15645929 0.0064015393 0.0885524 -0.028445378
0.043809567 0.28722343 0.012852281 0.053619225 0.047708936 -0.044642165 0.031719293 0.034290552
-0.19604416 0.034814794 -0.111169465 0.10215801 -0.03727668 0.1627551 0.114320435 0.082651615
-0.0009502788 -0.043639913 0.10805996 -0.06974972 -0.079483025 -0.22010776 0.18166113 -0.06578469
0.14358446 0.014475029 -0.05695566 0.09236605 0.08695677 -0.067139246 -0.09211798 0.031691108
-0.16643561 0.08044329 -0.037732378 0.13508064 -0.08699279 -0.17071761 0.06065499 0.068729155
-0.024563175 0.12043794 0.08359899 -0.019833198 -0.10361194 -0.032407712 0.07909058 -0.047660924

f6.bias f4 [84]
00000000: 07a5 f83c a98d 8abc 1d11 febd 7a2c aa3d
00000010: 6579 e93d 5233 f7bb 9d6a 88bb 43a2 023c
00000020: c032 d1bc 3842 81bd 14aa 0b3e f767 443e
00000030: 1402 0abe 520b 733c 9d5c 283d 253c 583d
00000040: 2716 56bd f887 3a3d f1c6 73be cbaa 46bd
00000050: e8eb a2bd 8d1a 6b3d e2e5 7ebd 6d6c 51bd
00000060: c5f3 75bd 5f41 3bbb b441 f9bc 4c64 e7bd
00000070: 9bbc 3fbe 4c60 9c3c 8cd5 06be bb7a 85bc
00000080: 4480 fbbc f66f b7bd 8f70 183e 73fc 483d
00000090: 201d 2fbd 2e17 d63d 7509 c43d d811 92bb
000000a0: b1bf 06bd 8c8e 1f3e d4b2 443d 36d6 b23b
000000b0: a458 0b3d ba33 0bbe 4549 163e 3379 dcbd
000000c0: 2979 03bc 0cb6 a23c bbd1 db3d 9364 153e
000000d0: ba42 383d c0bb 14be 6084 54bc 0e24 51bd
000000e0: 965f 06be 849d 033e e82d ec3d efae 043d
000000f0: a22f 52bd 6c53 ebbc 076c 51be fc88 53bd
00000100: bfc9 0d3e 0300 3abe 17db 443d 67ec d0bd
00000110: 506b e43d 5afb 2abe cbd6 dfbd 2a1b edbd
00000120: 650f 463c c258 013d e4e1 c7bc d5c2 c7bd
00000130: cfac 1ebd e578 1e3e d4ed 18be 2a18 24be
00000140: e2e4 e73d 9ace 15be 411d c2bd ddd8 153d
0.030352129 -0.016913252 -0.12405608 0.083092645 0.11400107 -0.0075439597 -0.0041631 0.0079732565
-0.025536895 -0.06311458 0.13639098 0.19180284 -0.13477355 0.014834242 0.041103948 0.052791733
-0.05226722 0.045539826 -0.23806359 -0.048502725 -0.07955152 0.057398368 -0.062230952 -0.051128794
-0.06004693 -0.00285729 -0.030426838 -0.11298427 -0.18724291 0.019088887 -0.13167399 -0.016293874
-0.03070081 -0.08956902 0.14886688 0.04906888 -0.042752385 0.1045364 0.09572116 -0.0044576935
-0.032897655 0.15581721 0.048022106 0.005457665 0.03402008 -0.13593951 0.14676388 -0.107653044
-0.008024492 0.019862197 0.10733362 0.14589147 0.04498551 -0.14524746 -0.012971014 -0.051059775
-0.131224 0.12853056 0.115321934 0.032393392 -0.051314957 -0.028726302 -0.20451365 -0.05164431
0.13846491 -0.18164067 0.048060503 -0.1020134 0.11153281 -0.16697446 -0.109296404 -0.11577447
0.012088631 0.031578787 -0.024399705 -0.09753958 -0.038739022 0.15475805 -0.14934474 -0.16024843
0.11322953 -0.14629593 -0.09478236 0.03658377

f7.weight f4 [10, 84]
00000000: 2feb d9bd 7016 a7bd ec4a 82bd c8c7 abbd
00000010: 8f66 003d a186 34be e0e4 9b3b 7ae0 6fbc
00000020: 241f 883d de7d 26bc c1f9 183d 12be 333c
00000030: 292b e0bd f53c 07be 2433 0f3e 473b edbd
00000040: 177b 35be 7d20 20be 15d5 05be 3c24 193c
00000050: 7f82 163e 2967 c73d 8569 b93d f47c ae3d
00000060: 6ca1 073e 5c74 bcbd 374a 34bc 29fd 8fb9
00000070: 9a1d 233e 40af bc3d d2a3 d53d 4f6f 723b
00000080: 1f54 09bd d09e b6bd a474 1ebd c0c5 03bc
00000090: 0e7e 32be 408c f03d 6632 e1bd 773c 543d
000000a0: 8130 70be 5354 173e 2413 10be 0650 67ba
000000b0: 57d4 8ebc e8d4 20bd 8b51 f13d 5c72 233d
000000c0: bfc7 2e3b 6c5a 4cbd 6824 5a3c b08b 0a3e
000000d0: 8ebf bc3d bc02 8b3c 9ca2 3c3d c41d 393e
000000e0: d323 b73c afce b43d 8db5 183e e87a d1bb
000000f0: a2a9 0a3e eaed 473d f2e0 d63c 9c2d a93d
00000100: d5a6 03be 21ed d5bd 89d8 79bd e645 663d
00000110: 9d85 57bd aae6 5abd 3323 0bbe f397 96bd
00000120: e503 6abe c625 d4bd 8863 f23d ad88 303d
00000130: d39c 043d a73b a43d a77b 8a3d 8828 af3d
00000140: ad47 96bd fe04 40be 9cae 06be c8d0 b03c
00000150: 06cb 85bd 96ef 43bd f678 8ebc 6bd4 fdbd
00000160: e67f 1f3d 4fa6 d6bd f611 87bd 9a49 1f3e
00000170: 1e2f c83d 4f49 cb3d 1761 10be afc1 d6bd
00000180: 4be1 25be 73fb 96bd a721 463d bd88 22be
00000190: 24ae 333d f663 983e 61f6 af3e c6ad 80be
000001a0: 068a 4a3e 8cc2 213e 6257 cd3e 143f 6b3e
000001b0: 674f fbbd 4d81 6ebd 9b30 2fbe 06b1 ffbd
000001c0: 3bb0 9a3e c113 183e 95b0 323e 2efa bb3d
000001d0: 364a 73bd d873 533e fbf4 53be f04f cf3d
000001e0: f023 bf3c 2cc3 71be fcc9 3fbe 5ecf b63d
000001f0: 5d2a 9d3c 1e32 693d 8962 c7bd ff11 983d
00000200: 0559 f7bd f09a 383e 1abf b03d 04ec 21be
00000210: 740c 0fbe 1278 4d3c bb36 b5bd 0aa6 8dbe
00000220: a2e7 0fbe b51a 323d 781a 60be 39c7 38bd
00000230: c873 05be 5e76 2ebd dccc ebbc 3823 e53d
00000240: a8fe 0a3e e88b 38be b497 45bb ec14 59bd
00000250: e005 babd a5a3 4e3e f7ac f93d 13f9 65bc
00000260: 9926 97bd b7c6 1e3d 6279 5dbd 4673 f63d
00000270: 843f 543e fb69 b7bd cc57 68bd 45a6 9ebd
00000280: 6d12 87be 38cf 0ebd ba51 013e d851 ce3d
00000290: 6158 5abe 9200 b93d 9023 fabd 95ae fbbc
000002a0: 7097 113c b404 9b3d aa15 09be cf1a 1dbe
000002b0: 15dd 273d 0eb6 93bb 0268 44bb 98f5 58be
000002c0: c5a1 983d 03ad 1dbe 9ff5 0b3e c8cc 283d
000002d0: 0ef3 90bd 48a8 21be e9a5 0d3e 993b 84bd
000002e0: 1663 22bd 4b85 e63a 7b3a 30be fe79 0c3d
000002f0: 24c9 fb3d db23 c93d 069f 24be c085 2fbd
00000300: 6152 0b3e 721c 173d d9b5 9abb 4222 54bd
00000310: 7c39 27be 5362 cc3d b7d6 413c 955b 0ebc
00000320: e73f f5bd d155 fbbd 97d7 5c3c 6199 213e
00000330: 03dd 083e 9cd0 9e3d 2f1f 8f3c 25bf 603d
00000340: 8eee 2d3d 76b0 1b3e 4bda 383e 7a6a 753d
00000350: a717 0fbc 0785 a6bd 342e 3cbd 1905 3cbe
00000360: 9ca2 f03d b1e7 b0bd f0d1 1b3e cbb5 c33d
00000370: db75 8c3d 5051 b4bd b5da 98bd 3b61 2bbc
00000380: cca2 abbd 151c 813d b266 7cbc 02ed 1f3e
00000390: 78bd a0bc fc4d b53c cb6e 33be ae52 65bd
000003a0: 721d c3bd 3c60 d2bd 7a40 693d 3fbc cb3d
000003b0: 6f15 1c3d a772 11be 1163 a7bd 03b1 c2bd
000003c0: 305a 6a3d 130b 81be 0dcb c23d 1964 40be
000003d0: 4ad2 25bd fbf9 e93d a0b7 92bc 72a1 cfbd
000003e0: 66c5 febd e5f4 c93c de93 31bd bfa0 8b3d
000003f0: d53f 9d3d cc15 3fbe 8e23 23be 4f9c a7bd
-0.10640561 -0.081585765 -0.063619465 -0.083877146 0.031347807 -0.17629482 0.0047575086 -0.014640922
0.066465646 -0.010161845 0.03734756 0.010970609 -0.10945732 -0.13206847 0.13984352 -0.11583572
-0.17722736 -0.15637393 -0.13069566 0.009347018 0.14698218 0.09736473 0.090533294 0.08519927
0.13245171 -0.09201881 -0.011004022 -0.00027463704 0.15929261 0.09213114 0.10431637 0.0036992615
-0.03352749 -0.0891701 -0.038685456 -0.008042753 -0.17430899 0.117455006 -0.10995941 0.051815476
-0.23456003 0.14778261 -0.14069802 -0.0008823875 -0.017435236 -0.039265543 0.11783131 0.039903983
0.002666935 -0.04989092 0.013314344 0.13529849 0.09216224 0.016969077 0.046053514 0.18077761
0.02235595 0.08828484 0.14913006 -0.0063928254 0.13541272 0.048810877 0.02623031 0.082606524
-0.1285661 -0.104456194 -0.06099752 0.056219004 -0.052617658 -0.053442635 -0.13587646 -0.07353201
-0.22853048 -0.10358767 0.1183539 0.043099094 0.03237612 0.0801919 0.06761866 0.085526526
-0.0733789 -0.18751904 -0.13152546 0.02158393 -0.06532864 -0.04783591 -0.017391663 -0.12394031
0.038940333 -0.104809396 -0.06595223 0.1555542 0.09774612 0.09926092 -0.14099537 -0.10486161
-0.16199224 -0.07372179 0.048371937 -0.15872474 0.043867245 0.29763764 0.3436766 -0.2513258
0.19779214 0.1579687 0.4010573 0.22973281 -0.12271004 -0.05822878 -0.17108385 -0.124849364
0.30212578 0.14851286 0.17450173 0.09178577 -0.059396945 0.2064966 -0.20698921 0.10122669
0.023332566 -0.23609608 -0.18729395 0.08926271 0.01918524 0.05693256 -0.09735591 0.074253075
-0.12077526 0.18027854 0.086302 -0.15812689 -0.13969594 0.012540834 -0.0884833 -0.2766574
-0.14053205 0.0434825 -0.21885097 -0.04511187 -0.13032448 -0.042593352 -0.028784208 0.11188358
0.13573706 -0.1802212 -0.0030150237 -0.05299847 -0.09083152 0.20179613 0.121911936 -0.014036435
-0.07380409 0.038763728 -0.054070838 0.120337054 0.20727354 -0.08955761 -0.056724355 -0.07746557
-0.26381245 -0.034865588 0.12628832 0.10074204 -0.21322776 0.09033312 -0.12213814 -0.030722896
0.008886203 0.075692564 -0.1338717 -0.15342258 0.040982325 -0.0045077866 -0.002996922 -0.21187437
0.0745273 -0.1539803 0.13667916 0.04121092 -0.07077609 -0.1578685 0.13832821 -0.0645668
-0.039645277 0.0017587332 -0.17209809 0.03429603 0.12294224 0.09821292 -0.16076288 -0.042852163
0.13605644 0.036892362 -0.004721385 -0.051790483 -0.16330522 0.09979691 0.011830977 -0.008688827
-0.11975079 -0.122722276 0.013479135 0.15781166 0.1336556 0.07754633 0.017470924 0.05486979
0.04246383 0.15204033 0.18052022 0.059915997 -0.0087336665 -0.08130842 -0.0459425 -0.1836132
0.11749765 -0.08637942 0.15216804 0.09556159 0.06858417 -0.08804572 -0.0746359 -0.010460193
-0.083806604 0.06304184 -0.015405344 0.15617755 -0.019621596 0.022131912 -0.17522733 -0.055987053
-0.095271006 -0.102722615 0.056946255 0.099480145 0.03810638 -0.14203893 -0.08173192 -0.095064186
0.057214916 -0.2520376 0.09511385 -0.18788184 -0.04048375 0.11424633 -0.017909825 -0.10138215
-0.124399945 0.024652908 -0.043353908 0.06817769 0.076781906 -0.18660659 -0.15931532 -0.081841104

f7.bias f4 [10]
00000000: c168 40bd 814b 22be c851 053d 91eb 39bd
00000010: 4319 8ebd 59c0 c2bd 4a0c cc3d 0d8f 77bc
00000020: 20ee 953e f6a8 4ebe
-0.0469749 -0.15849115 0.032548696 -0.04539067 -0.06938412 -0.09509344 0.099632815 -0.01510979
0.29283237 -0.20181641
